…
2019-02-28 11:17:09.302243: I tensorflow/core/common_runtime/gpu/gpu_device.cc:1084] Created TensorFlow device (/job:localhost/replica:0/task:0/device:GPU:0 with 11254 MB memory) -> physical GPU (device: 0, name: Tesla P100-PCIE-12GB, pci bus id: 0000:37:00.0, compute capability: 6.0)
Found 400000 word vectors.
network type: lstm_normI
Initialize...
Build LSTM Norm I model...
__________________________________________________________________________________________________
Layer (type)                    Output Shape         Param #     Connected to                     
==================================================================================================
img_input (InputLayer)          (None, 224, 224, 3)  0                                            
__________________________________________________________________________________________________
zero_padding2d_1 (ZeroPadding2D (None, 226, 226, 3)  0           img_input[0][0]                  
__________________________________________________________________________________________________
conv2d_1 (Conv2D)               (None, 226, 226, 64) 1792        zero_padding2d_1[0][0]           
__________________________________________________________________________________________________
zero_padding2d_2 (ZeroPadding2D (None, 228, 228, 64) 0           conv2d_1[0][0]                   
__________________________________________________________________________________________________
conv2d_2 (Conv2D)               (None, 226, 226, 64) 36928       zero_padding2d_2[0][0]           
__________________________________________________________________________________________________
max_pooling2d_1 (MaxPooling2D)  (None, 113, 113, 64) 0           conv2d_2[0][0]                   
__________________________________________________________________________________________________
zero_padding2d_3 (ZeroPadding2D (None, 115, 115, 64) 0           max_pooling2d_1[0][0]            
__________________________________________________________________________________________________
conv2d_3 (Conv2D)               (None, 115, 115, 128 73856       zero_padding2d_3[0][0]           
__________________________________________________________________________________________________
zero_padding2d_4 (ZeroPadding2D (None, 117, 117, 128 0           conv2d_3[0][0]                   
__________________________________________________________________________________________________
conv2d_4 (Conv2D)               (None, 115, 115, 128 147584      zero_padding2d_4[0][0]           
__________________________________________________________________________________________________
max_pooling2d_2 (MaxPooling2D)  (None, 57, 57, 128)  0           conv2d_4[0][0]                   
__________________________________________________________________________________________________
zero_padding2d_5 (ZeroPadding2D (None, 59, 59, 128)  0           max_pooling2d_2[0][0]            
__________________________________________________________________________________________________
conv2d_5 (Conv2D)               (None, 59, 59, 256)  295168      zero_padding2d_5[0][0]           
__________________________________________________________________________________________________
zero_padding2d_6 (ZeroPadding2D (None, 61, 61, 256)  0           conv2d_5[0][0]                   
__________________________________________________________________________________________________
conv2d_6 (Conv2D)               (None, 59, 59, 256)  590080      zero_padding2d_6[0][0]           
__________________________________________________________________________________________________
max_pooling2d_3 (MaxPooling2D)  (None, 29, 29, 256)  0           conv2d_6[0][0]                   
__________________________________________________________________________________________________
zero_padding2d_7 (ZeroPadding2D (None, 31, 31, 256)  0           max_pooling2d_3[0][0]            
__________________________________________________________________________________________________
conv2d_7 (Conv2D)               (None, 31, 31, 512)  1180160     zero_padding2d_7[0][0]           
__________________________________________________________________________________________________
zero_padding2d_8 (ZeroPadding2D (None, 33, 33, 512)  0           conv2d_7[0][0]                   
__________________________________________________________________________________________________
conv2d_8 (Conv2D)               (None, 31, 31, 512)  2359808     zero_padding2d_8[0][0]           
__________________________________________________________________________________________________
max_pooling2d_4 (MaxPooling2D)  (None, 15, 15, 512)  0           conv2d_8[0][0]                   
__________________________________________________________________________________________________
zero_padding2d_9 (ZeroPadding2D (None, 17, 17, 512)  0           max_pooling2d_4[0][0]            
__________________________________________________________________________________________________
conv2d_9 (Conv2D)               (None, 17, 17, 512)  2359808     zero_padding2d_9[0][0]           
__________________________________________________________________________________________________
zero_padding2d_10 (ZeroPadding2 (None, 19, 19, 512)  0           conv2d_9[0][0]                   
__________________________________________________________________________________________________
conv2d_10 (Conv2D)              (None, 17, 17, 512)  2359808     zero_padding2d_10[0][0]          
__________________________________________________________________________________________________
txt_input (InputLayer)          (None, 30)           0                                            
__________________________________________________________________________________________________
max_pooling2d_5 (MaxPooling2D)  (None, 8, 8, 512)    0           conv2d_10[0][0]                  
__________________________________________________________________________________________________
embedding_1 (Embedding)         (None, 30, 300)      488700      txt_input[0][0]                  
__________________________________________________________________________________________________
flatten_1 (Flatten)             (None, 32768)        0           max_pooling2d_5[0][0]            
__________________________________________________________________________________________________
lstm_1 (LSTM)                   (None, 30, 512)      1665024     embedding_1[0][0]                
__________________________________________________________________________________________________
dense_1 (Dense)                 (None, 4096)         134221824   flatten_1[0][0]                  
__________________________________________________________________________________________________
dropout_1 (Dropout)             (None, 30, 512)      0           lstm_1[0][0]                     
__________________________________________________________________________________________________
dropout_3 (Dropout)             (None, 4096)         0           dense_1[0][0]                    
__________________________________________________________________________________________________
lstm_2 (LSTM)                   (None, 512)          2099200     dropout_1[0][0]                  
__________________________________________________________________________________________________
dense_2 (Dense)                 (None, 4096)         16781312    dropout_3[0][0]                  
__________________________________________________________________________________________________
dropout_2 (Dropout)             (None, 512)          0           lstm_2[0][0]                     
__________________________________________________________________________________________________
dropout_4 (Dropout)             (None, 4096)         0           dense_2[0][0]                    
__________________________________________________________________________________________________
txt_output (Dense)              (None, 1024)         525312      dropout_2[0][0]                  
__________________________________________________________________________________________________
img_output (Dense)              (None, 1024)         4195328     dropout_4[0][0]                  
__________________________________________________________________________________________________
multiply_1 (Multiply)           (None, 1024)         0           txt_output[0][0]                 
                                                                 img_output[0][0]                 
__________________________________________________________________________________________________
dropout_5 (Dropout)             (None, 1024)         0           multiply_1[0][0]                 
__________________________________________________________________________________________________
dense_3 (Dense)                 (None, 1024)         1049600     dropout_5[0][0]                  
__________________________________________________________________________________________________
dropout_6 (Dropout)             (None, 1024)         0           dense_3[0][0]                    
__________________________________________________________________________________________________
dense_4 (Dense)                 (None, 1024)         1049600     dropout_6[0][0]                  
__________________________________________________________________________________________________
dropout_7 (Dropout)             (None, 1024)         0           dense_4[0][0]                    
__________________________________________________________________________________________________
dense_5 (Dense)                 (None, 1024)         1049600     dropout_7[0][0]                  
__________________________________________________________________________________________________
dropout_8 (Dropout)             (None, 1024)         0           dense_5[0][0]                    
__________________________________________________________________________________________________
dense_6 (Dense)                 (None, 462)          473550      dropout_8[0][0]                  
==================================================================================================
Total params: 173,004,042
Trainable params: 173,004,042
Non-trainable params: 0
__________________________________________________________________________________________________
Epoch 1/100
/home/stem/dg8245/anaconda3/envs/py36/lib/python3.6/site-packages/h5py/__init__.py:34: FutureWarning: Conversion of the second argument of issubdtype from `float` to `np.floating` is deprecated. In future, it will be treated as `np.float64 == np.dtype(float).type`.
…
